…
-------------------------------33.6 K Trainable params0 Non-trainable params33.6 K Total params0.135 Total estimated model params size (MB)Epoch 19: 100%|| 145/145 [01:03<00:00, 2.28it/s, loss=45.2, v_num=3, train_loss_step=46.30, val_loss=67.60, train_loss_epoch=48.10][flaml.automl: 07-28 22:08:05] {3425} INFO - retrain tft for 1279.6s[flaml.automl: 07-28 22:08:05] {3432} INFO - retrained model: TemporalFusionTransformer( (loss): QuantileLoss() (logging_metrics): ModuleList( (0): SMAPE() (1): MAE() (2): RMSE() (3): MAPE() ) (input_embeddings): MultiEmbedding( (embeddings): ModuleDict( (agency): Embedding(58, 16) (sku): Embedding(25, 10) (special_days): TimeDistributedEmbeddingBag(11, 6, mode=sum) (month): Embedding(12, 6) ) ) (prescalers): ModuleDict( (avg_population_2017): Linear(in_features=1, out_features=8, bias=True) (avg_yearly_household_income_2017): Linear(in_features=1, out_features=8, bias=True) (encoder_length): Linear(in_features=1, out_features=8, bias=True) (y_center): Linear(in_features=1, out_features=8, bias=True) (y_scale): Linear(in_features=1, out_features=8, bias=True) (time_idx): Linear(in_features=1, out_features=8, bias=True) (price_regular): Linear(in_features=1, out_features=8, bias=True) (discount_in_percent): Linear(in_features=1, out_features=8, bias=True) (relative_time_idx): Linear(in_features=1, out_features=8, bias=True) (y): Linear(in_features=1, out_features=8, bias=True) (log_volume): Linear(in_features=1, out_features=8, bias=True) (industry_volume): Linear(in_features=1, out_features=8, bias=True) (soda_volume): Linear(in_features=1, out_features=8, bias=True) (avg_max_temp): Linear(in_features=1, out_features=8, bias=True) (avg_volume_by_agency): Linear(in_features=1, out_features=8, bias=True) (avg_volume_by_sku): Linear(in_features=1, out_features=8, bias=True) ) (static_variable_selection): VariableSelectionNetwork( (flattened_grn): GatedResidualNetwork( (resample_norm): ResampleNorm( (resample): TimeDistributedInterpolation() (gate): Sigmoid() (norm): LayerNorm((7,), eps=1e-05, elementwise_affine=True) ) (fc1): Linear(in_features=66, out_features=7, bias=True) (elu): ELU(alpha=1.0) (fc2): Linear(in_features=7, out_features=7, bias=True) (gate_norm): GateAddNorm( (glu): GatedLinearUnit( (dropout): Dropout(p=0.1, inplace=False) (fc): Linear(in_features=7, out_features=14, bias=True) ) (add_norm): AddNorm( (norm): LayerNorm((7,), eps=1e-05, elementwise_affine=True) ) ) ) (single_variable_grns): ModuleDict( (agency): ResampleNorm( (gate): Sigmoid() (norm): LayerNorm((16,), eps=1e-05, elementwise_affine=True) ) (sku): ResampleNorm( (resample): TimeDistributedInterpolation() (gate): Sigmoid() (norm): LayerNorm((16,), eps=1e-05, elementwise_affine=True) ) (avg_population_2017): GatedResidualNetwork( (resample_norm): ResampleNorm( (resample): TimeDistributedInterpolation() (gate): Sigmoid() (norm): LayerNorm((16,), eps=1e-05, elementwise_affine=True) ) (fc1): Linear(in_features=8, out_features=8, bias=True) (elu): ELU(alpha=1.0) (fc2): Linear(in_features=8, out_features=8, bias=True) (gate_norm): GateAddNorm( (glu): GatedLinearUnit( (dropout): Dropout(p=0.1, inplace=False) (fc): Linear(in_features=8, out_features=32, bias=True) ) (add_norm): AddNorm( (norm): LayerNorm((16,), eps=1e-05, elementwise_affine=True) ) ) ) (avg_yearly_household_income_2017): GatedResidualNetwork( (resample_norm): ResampleNorm( (resample): TimeDistributedInterpolation() (gate): Sigmoid() (norm): LayerNorm((16,), eps=1e-05, elementwise_affine=True) ) (fc1): Linear(in_features=8, out_features=8, bias=True) (elu): ELU(alpha=1.0) (fc2): Linear(in_features=8, out_features=8, bias=True) (gate_norm): GateAddNorm( (glu): GatedLinearUnit( (dropout): Dropout(p=0.1, inplace=False) (fc): Linear(in_features=8, out_features=32, bias=True) ) (add_norm): AddNorm( (norm): LayerNorm((16,), eps=1e-05, elementwise_affine=True) ) ) ) (encoder_length): GatedResidualNetwork( (resample_norm): ResampleNorm( (resample): TimeDistributedInterpolation() (gate): Sigmoid() (norm): LayerNorm((16,), eps=1e-05, elementwise_affine=True) ) (fc1): Linear(in_features=8, out_features=8, bias=True) (elu): ELU(alpha=1.0) (fc2): Linear(in_features=8, out_features=8, bias=True) (gate_norm): GateAddNorm( (glu): GatedLinearUnit( (dropout): Dropout(p=0.1, inplace=False) (fc): Linear(in_features=8, out_features=32, bias=True) ) (add_norm): AddNorm( (norm): LayerNorm((16,), eps=1e-05, elementwise_affine=True) ) ) ) (y_center): GatedResidualNetwork( (resample_norm): ResampleNorm( (resample): TimeDistributedInterpolation() (gate): Sigmoid() (norm): LayerNorm((16,), eps=1e-05, elementwise_affine=True) ) (fc1): Linear(in_features=8, out_features=8, bias=True) (elu): ELU(alpha=1.0) (fc2): Linear(in_features=8, out_features=8, bias=True) (gate_norm): GateAddNorm( (glu): GatedLinearUnit( (dropout): Dropout(p=0.1, inplace=False) (fc): Linear(in_features=8, out_features=32, bias=True) ) (add_norm): AddNorm( (norm): LayerNorm((16,), eps=1e-05, elementwise_affine=True) ) ) ) (y_scale): GatedResidualNetwork( (resample_norm): ResampleNorm( (resample): TimeDistributedInterpolation() (gate): Sigmoid() (norm): LayerNorm((16,), eps=1e-05, elementwise_affine=True) ) (fc1): Linear(in_features=8, out_features=8, bias=True) (elu): ELU(alpha=1.0) (fc2): Linear(in_features=8, out_features=8, bias=True) (gate_norm): GateAddNorm( (glu): GatedLinearUnit( (dropout): Dropout(p=0.1, inplace=False) (fc): Linear(in_features=8, out_features=32, bias=True) ) (add_norm): AddNorm( (norm): LayerNorm((16,), eps=1e-05, elementwise_affine=True) ) ) ) ) (prescalers): ModuleDict( (avg_population_2017): Linear(in_features=1, out_features=8, bias=True) (avg_yearly_household_income_2017): Linear(in_features=1, out_features=8, bias=True) (encoder_length): Linear(in_features=1, out_features=8, bias=True) (y_center): Linear(in_features=1, out_features=8, bias=True) (y_scale): Linear(in_features=1, out_features=8, bias=True) ) (softmax): Softmax(dim=-1) ) (encoder_variable_selection): VariableSelectionNetwork( (flattened_grn): GatedResidualNetwork( (resample_norm): ResampleNorm( (resample): TimeDistributedInterpolation() (gate): Sigmoid() (norm): LayerNorm((13,), eps=1e-05, elementwise_affine=True) ) (fc1): Linear(in_features=100, out_features=13, bias=True) (elu): ELU(alpha=1.0) (context): Linear(in_features=16, out_features=13, bias=False) (fc2): Linear(in_features=13, out_features=13, bias=True) (gate_norm): GateAddNorm( (glu): GatedLinearUnit( (dropout): Dropout(p=0.1, inplace=False) (fc): Linear(in_features=13, out_features=26, bias=True) ) (add_norm): AddNorm( (norm): LayerNorm((13,), eps=1e-05, elementwise_affine=True) ) ) ) (single_variable_grns): ModuleDict( (special_days): ResampleNorm( (resample): TimeDistributedInterpolation() (gate): Sigmoid() (norm): LayerNorm((16,), eps=1e-05, elementwise_affine=True) ) (month): ResampleNorm( (resample): TimeDistributedInterpolation() (gate): Sigmoid() (norm): LayerNorm((16,), eps=1e-05, elementwise_affine=True) ) (time_idx): GatedResidualNetwork( (resample_norm): ResampleNorm( (resample): TimeDistributedInterpolation() (gate): Sigmoid() (norm): LayerNorm((16,), eps=1e-05, elementwise_affine=True) ) (fc1): Linear(in_features=8, out_features=8, bias=True) (elu): ELU(alpha=1.0) (fc2): Linear(in_features=8, out_features=8, bias=True) (gate_norm): GateAddNorm( (glu): GatedLinearUnit( (dropout): Dropout(p=0.1, inplace=False) (fc): Linear(in_features=8, out_features=32, bias=True) ) (add_norm): AddNorm( (norm): LayerNorm((16,), eps=1e-05, elementwise_affine=True) ) ) ) (price_regular): GatedResidualNetwork( (resample_norm): ResampleNorm( (resample): TimeDistributedInterpolation() (gate): Sigmoid() (norm): LayerNorm((16,), eps=1e-05, elementwise_affine=True) ) (fc1): Linear(in_features=8, out_features=8, bias=True) (elu): ELU(alpha=1.0) (fc2): Linear(in_features=8, out_features=8, bias=True) (gate_norm): GateAddNorm( (glu): GatedLinearUnit( (dropout): Dropout(p=0.1, inplace=False) (fc): Linear(in_features=8, out_features=32, bias=True) ) (add_norm): AddNorm( (norm): LayerNorm((16,), eps=1e-05, elementwise_affine=True) ) ) ) (discount_in_percent): GatedResidualNetwork( (resample_norm): ResampleNorm( (resample): TimeDistributedInterpolation() (gate): Sigmoid() (norm): LayerNorm((16,), eps=1e-05, elementwise_affine=True) ) (fc1): Linear(in_features=8, out_features=8, bias=True) (elu): ELU(alpha=1.0) (fc2): Linear(in_features=8, out_features=8, bias=True) (gate_norm): GateAddNorm( (glu): GatedLinearUnit( (dropout): Dropout(p=0.1, inplace=False) (fc): Linear(in_features=8, out_features=32, bias=True) ) (add_norm): AddNorm( (norm): LayerNorm((16,), eps=1e-05, elementwise_affine=True) ) ) ) (relative_time_idx): GatedResidualNetwork( (resample_norm): ResampleNorm( (resample): TimeDistributedInterpolation() (gate): Sigmoid() (norm): LayerNorm((16,), eps=1e-05, elementwise_affine=True) ) (fc1): Linear(in_features=8, out_features=8, bias=True) (elu): ELU(alpha=1.0) (fc2): Linear(in_features=8, out_features=8, bias=True) (gate_norm): GateAddNorm( (glu): GatedLinearUnit( (dropout): Dropout(p=0.1, inplace=False) (fc): Linear(in_features=8, out_features=32, bias=True) ) (add_norm): AddNorm( (norm): LayerNorm((16,), eps=1e-05, elementwise_affine=True) ) ) ) (y): GatedResidualNetwork( (resample_norm): ResampleNorm( (resample): TimeDistributedInterpolation() (gate): Sigmoid() (norm): LayerNorm((16,), eps=1e-05, elementwise_affine=True) ) (fc1): Linear(in_features=8, out_features=8, bias=True) (elu): ELU(alpha=1.0) (fc2): Linear(in_features=8, out_features=8, bias=True) (gate_norm): GateAddNorm( (glu): GatedLinearUnit( (dropout): Dropout(p=0.1, inplace=False) (fc): Linear(in_features=8, out_features=32, bias=True) ) (add_norm): AddNorm( (norm): LayerNorm((16,), eps=1e-05, elementwise_affine=True) ) ) ) (log_volume): GatedResidualNetwork( (resample_norm): ResampleNorm( (resample): TimeDistributedInterpolation() (gate): Sigmoid() (norm): LayerNorm((16,), eps=1e-05, elementwise_affine=True) ) (fc1): Linear(in_features=8, out_features=8, bias=True) (elu): ELU(alpha=1.0) (fc2): Linear(in_features=8, out_features=8, bias=True) (gate_norm): GateAddNorm( (glu): GatedLinearUnit( (dropout): Dropout(p=0.1, inplace=False) (fc): Linear(in_features=8, out_features=32, bias=True) ) (add_norm): AddNorm( (norm): LayerNorm((16,), eps=1e-05, elementwise_affine=True) ) ) ) (industry_volume): GatedResidualNetwork( (resample_norm): ResampleNorm( (resample): TimeDistributedInterpolation() (gate): Sigmoid() (norm): LayerNorm((16,), eps=1e-05, elementwise_affine=True) ) (fc1): Linear(in_features=8, out_features=8, bias=True) (elu): ELU(alpha=1.0) (fc2): Linear(in_features=8, out_features=8, bias=True) (gate_norm): GateAddNorm( (glu): GatedLinearUnit( (dropout): Dropout(p=0.1, inplace=False) (fc): Linear(in_features=8, out_features=32, bias=True) ) (add_norm): AddNorm( (norm): LayerNorm((16,), eps=1e-05, elementwise_affine=True) ) ) ) (soda_volume): GatedResidualNetwork( (resample_norm): ResampleNorm( (resample): TimeDistributedInterpolation() (gate): Sigmoid() (norm): LayerNorm((16,), eps=1e-05, elementwise_affine=True) ) (fc1): Linear(in_features=8, out_features=8, bias=True) (elu): ELU(alpha=1.0) (fc2): Linear(in_features=8, out_features=8, bias=True) (gate_norm): GateAddNorm( (glu): GatedLinearUnit( (dropout): Dropout(p=0.1, inplace=False) (fc): Linear(in_features=8, out_features=32, bias=True) ) (add_norm): AddNorm( (norm): LayerNorm((16,), eps=1e-05, elementwise_affine=True) ) ) ) (avg_max_temp): GatedResidualNetwork( (resample_norm): ResampleNorm( (resample): TimeDistributedInterpolation() (gate): Sigmoid() (norm): LayerNorm((16,), eps=1e-05, elementwise_affine=True) ) (fc1): Linear(in_features=8, out_features=8, bias=True) (elu): ELU(alpha=1.0) (fc2): Linear(in_features=8, out_features=8, bias=True) (gate_norm): GateAddNorm( (glu): GatedLinearUnit( (dropout): Dropout(p=0.1, inplace=False) (fc): Linear(in_features=8, out_features=32, bias=True) ) (add_norm): AddNorm( (norm): LayerNorm((16,), eps=1e-05, elementwise_affine=True) ) ) ) (avg_volume_by_agency): GatedResidualNetwork( (resample_norm): ResampleNorm( (resample): TimeDistributedInterpolation() (gate): Sigmoid() (norm): LayerNorm((16,), eps=1e-05, elementwise_affine=True) ) (fc1): Linear(in_features=8, out_features=8, bias=True) (elu): ELU(alpha=1.0) (fc2): Linear(in_features=8, out_features=8, bias=True) (gate_norm): GateAddNorm( (glu): GatedLinearUnit( (dropout): Dropout(p=0.1, inplace=False) (fc): Linear(in_features=8, out_features=32, bias=True) ) (add_norm): AddNorm( (norm): LayerNorm((16,), eps=1e-05, elementwise_affine=True) ) ) ) (avg_volume_by_sku): GatedResidualNetwork( (resample_norm): ResampleNorm( (resample): TimeDistributedInterpolation() (gate): Sigmoid() (norm): LayerNorm((16,), eps=1e-05, elementwise_affine=True) ) (fc1): Linear(in_features=8, out_features=8, bias=True) (elu): ELU(alpha=1.0) (fc2): Linear(in_features=8, out_features=8, bias=True) (gate_norm): GateAddNorm( (glu): GatedLinearUnit( (dropout): Dropout(p=0.1, inplace=False) (fc): Linear(in_features=8, out_features=32, bias=True) ) (add_norm): AddNorm( (norm): LayerNorm((16,), eps=1e-05, elementwise_affine=True) ) ) ) ) (prescalers): ModuleDict( (time_idx): Linear(in_features=1, out_features=8, bias=True) (price_regular): Linear(in_features=1, out_features=8, bias=True) (discount_in_percent): Linear(in_features=1, out_features=8, bias=True) (relative_time_idx): Linear(in_features=1, out_features=8, bias=True) (y): Linear(in_features=1, out_features=8, bias=True) (log_volume): Linear(in_features=1, out_features=8, bias=True) (industry_volume): Linear(in_features=1, out_features=8, bias=True) (soda_volume): Linear(in_features=1, out_features=8, bias=True) (avg_max_temp): Linear(in_features=1, out_features=8, bias=True) (avg_volume_by_agency): Linear(in_features=1, out_features=8, bias=True) (avg_volume_by_sku): Linear(in_features=1, out_features=8, bias=True) ) (softmax): Softmax(dim=-1) ) (decoder_variable_selection): VariableSelectionNetwork( (flattened_grn): GatedResidualNetwork( (resample_norm): ResampleNorm( (resample): TimeDistributedInterpolation() (gate): Sigmoid() (norm): LayerNorm((6,), eps=1e-05, elementwise_affine=True) ) (fc1): Linear(in_features=44, out_features=6, bias=True) (elu): ELU(alpha=1.0) (context): Linear(in_features=16, out_features=6, bias=False) (fc2): Linear(in_features=6, out_features=6, bias=True) (gate_norm): GateAddNorm( (glu): GatedLinearUnit( (dropout): Dropout(p=0.1, inplace=False) (fc): Linear(in_features=6, out_features=12, bias=True) ) (add_norm): AddNorm( (norm): LayerNorm((6,), eps=1e-05, elementwise_affine=True) ) ) ) (single_variable_grns): ModuleDict( (special_days): ResampleNorm( (resample): TimeDistributedInterpolation() (gate): Sigmoid() (norm): LayerNorm((16,), eps=1e-05, elementwise_affine=True) ) (month): ResampleNorm( (resample): TimeDistributedInterpolation() (gate): Sigmoid() (norm): LayerNorm((16,), eps=1e-05, elementwise_affine=True) ) (time_idx): GatedResidualNetwork( (resample_norm): ResampleNorm( (resample): TimeDistributedInterpolation() (gate): Sigmoid() (norm): LayerNorm((16,), eps=1e-05, elementwise_affine=True) ) (fc1): Linear(in_features=8, out_features=8, bias=True) (elu): ELU(alpha=1.0) (fc2): Linear(in_features=8, out_features=8, bias=True) (gate_norm): GateAddNorm( (glu): GatedLinearUnit( (dropout): Dropout(p=0.1, inplace=False) (fc): Linear(in_features=8, out_features=32, bias=True) ) (add_norm): AddNorm( (norm): LayerNorm((16,), eps=1e-05, elementwise_affine=True) ) ) ) (price_regular): GatedResidualNetwork( (resample_norm): ResampleNorm( (resample): TimeDistributedInterpolation() (gate): Sigmoid() (norm): LayerNorm((16,), eps=1e-05, elementwise_affine=True) ) (fc1): Linear(in_features=8, out_features=8, bias=True) (elu): ELU(alpha=1.0) (fc2): Linear(in_features=8, out_features=8, bias=True) (gate_norm): GateAddNorm( (glu): GatedLinearUnit( (dropout): Dropout(p=0.1, inplace=False) (fc): Linear(in_features=8, out_features=32, bias=True) ) (add_norm): AddNorm( (norm): LayerNorm((16,), eps=1e-05, elementwise_affine=True) ) ) ) (discount_in_percent): GatedResidualNetwork( (resample_norm): ResampleNorm( (resample): TimeDistributedInterpolation() (gate): Sigmoid() (norm): LayerNorm((16,), eps=1e-05, elementwise_affine=True) ) (fc1): Linear(in_features=8, out_features=8, bias=True) (elu): ELU(alpha=1.0) (fc2): Linear(in_features=8, out_features=8, bias=True) (gate_norm): GateAddNorm( (glu): GatedLinearUnit( (dropout): Dropout(p=0.1, inplace=False) (fc): Linear(in_features=8, out_features=32, bias=True) ) (add_norm): AddNorm( (norm): LayerNorm((16,), eps=1e-05, elementwise_affine=True) ) ) ) (relative_time_idx): GatedResidualNetwork( (resample_norm): ResampleNorm( (resample): TimeDistributedInterpolation() (gate): Sigmoid() (norm): LayerNorm((16,), eps=1e-05, elementwise_affine=True) ) (fc1): Linear(in_features=8, out_features=8, bias=True) (elu): ELU(alpha=1.0) (fc2): Linear(in_features=8, out_features=8, bias=True) (gate_norm): GateAddNorm( (glu): GatedLinearUnit( (dropout): Dropout(p=0.1, inplace=False) (fc): Linear(in_features=8, out_features=32, bias=True) ) (add_norm): AddNorm( (norm): LayerNorm((16,), eps=1e-05, elementwise_affine=True) ) ) ) ) (prescalers): ModuleDict( (time_idx): Linear(in_features=1, out_features=8, bias=True) (price_regular): Linear(in_features=1, out_features=8, bias=True) (discount_in_percent): Linear(in_features=1, out_features=8, bias=True) (relative_time_idx): Linear(in_features=1, out_features=8, bias=True) ) (softmax): Softmax(dim=-1) ) (static_context_variable_selection): GatedResidualNetwork( (fc1): Linear(in_features=16, out_features=16, bias=True) (elu): ELU(alpha=1.0) (fc2): Linear(in_features=16, out_features=16, bias=True) (gate_norm): GateAddNorm( (glu): GatedLinearUnit( (dropout): Dropout(p=0.1, inplace=False) (fc): Linear(in_features=16, out_features=32, bias=True) ) (add_norm): AddNorm( (norm): LayerNorm((16,), eps=1e-05, elementwise_affine=True) ) ) ) (static_context_initial_hidden_lstm): GatedResidualNetwork( (fc1): Linear(in_features=16, out_features=16, bias=True) (elu): ELU(alpha=1.0) (fc2): Linear(in_features=16, out_features=16, bias=True) (gate_norm): GateAddNorm( (glu): GatedLinearUnit( (dropout): Dropout(p=0.1, inplace=False) (fc): Linear(in_features=16, out_features=32, bias=True) ) (add_norm): AddNorm( (norm): LayerNorm((16,), eps=1e-05, elementwise_affine=True) ) ) ) (static_context_initial_cell_lstm): GatedResidualNetwork( (fc1): Linear(in_features=16, out_features=16, bias=True) (elu): ELU(alpha=1.0) (fc2): Linear(in_features=16, out_features=16, bias=True) (gate_norm): GateAddNorm( (glu): GatedLinearUnit( (dropout): Dropout(p=0.1, inplace=False) (fc): Linear(in_features=16, out_features=32, bias=True) ) (add_norm): AddNorm( (norm): LayerNorm((16,), eps=1e-05, elementwise_affine=True) ) ) ) (static_context_enrichment): GatedResidualNetwork( (fc1): Linear(in_features=16, out_features=16, bias=True) (elu): ELU(alpha=1.0) (fc2): Linear(in_features=16, out_features=16, bias=True) (gate_norm): GateAddNorm( (glu): GatedLinearUnit( (dropout): Dropout(p=0.1, inplace=False) (fc): Linear(in_features=16, out_features=32, bias=True) ) (add_norm): AddNorm( (norm): LayerNorm((16,), eps=1e-05, elementwise_affine=True) ) ) ) (lstm_encoder): LSTM(16, 16, num_layers=2, batch_first=True, dropout=0.1) (lstm_decoder): LSTM(16, 16, num_layers=2, batch_first=True, dropout=0.1) (post_lstm_gate_encoder): GatedLinearUnit( (dropout): Dropout(p=0.1, inplace=False) (fc): Linear(in_features=16, out_features=32, bias=True) ) (post_lstm_gate_decoder): GatedLinearUnit( (dropout): Dropout(p=0.1, inplace=False) (fc): Linear(in_features=16, out_features=32, bias=True) ) (post_lstm_add_norm_encoder): AddNorm( (norm): LayerNorm((16,), eps=1e-05, elementwise_affine=True) ) (post_lstm_add_norm_decoder): AddNorm( (norm): LayerNorm((16,), eps=1e-05, elementwise_affine=True) ) (static_enrichment): GatedResidualNetwork( (fc1): Linear(in_features=16, out_features=16, bias=True) (elu): ELU(alpha=1.0) (context): Linear(in_features=16, out_features=16, bias=False) (fc2): Linear(in_features=16, out_features=16, bias=True) (gate_norm): GateAddNorm( (glu): GatedLinearUnit( (dropout): Dropout(p=0.1, inplace=False) (fc): Linear(in_features=16, out_features=32, bias=True) ) (add_norm): AddNorm( (norm): LayerNorm((16,), eps=1e-05, elementwise_affine=True) ) ) ) (multihead_attn): InterpretableMultiHeadAttention( (dropout): Dropout(p=0.1, inplace=False) (v_layer): Linear(in_features=16, out_features=4, bias=True) (q_layers): ModuleList( (0): Linear(in_features=16, out_features=4, bias=True) (1): Linear(in_features=16, out_features=4, bias=True) (2): Linear(in_features=16, out_features=4, bias=True) (3): Linear(in_features=16, out_features=4, bias=True) ) (k_layers): ModuleList( (0): Linear(in_features=16, out_features=4, bias=True) (1): Linear(in_features=16, out_features=4, bias=True) (2): Linear(in_features=16, out_features=4, bias=True) (3): Linear(in_features=16, out_features=4, bias=True) ) (attention): ScaledDotProductAttention( (softmax): Softmax(dim=2) ) (w_h): Linear(in_features=4, out_features=16, bias=False) ) (post_attn_gate_norm): GateAddNorm( (glu): GatedLinearUnit( (dropout): Dropout(p=0.1, inplace=False) (fc): Linear(in_features=16, out_features=32, bias=True) ) (add_norm): AddNorm( (norm): LayerNorm((16,), eps=1e-05, elementwise_affine=True) ) ) (pos_wise_ff): GatedResidualNetwork( (fc1): Linear(in_features=16, out_features=16, bias=True) (elu): ELU(alpha=1.0) (fc2): Linear(in_features=16, out_features=16, bias=True) (gate_norm): GateAddNorm( (glu): GatedLinearUnit( (dropout): Dropout(p=0.1, inplace=False) (fc): Linear(in_features=16, out_features=32, bias=True) ) (add_norm): AddNorm( (norm): LayerNorm((16,), eps=1e-05, elementwise_affine=True) ) ) ) (pre_output_gate_norm): GateAddNorm( (glu): GatedLinearUnit( (fc): Linear(in_features=16, out_features=32, bias=True) ) (add_norm): AddNorm( (norm): LayerNorm((16,), eps=1e-05, elementwise_affine=True) ) ) (output_layer): Linear(in_features=16, out_features=7, bias=True))[flaml.automl: 07-28 22:08:05] {2725} INFO - fit succeeded[flaml.automl: 07-28 22:08:05] {2726} INFO - Time taken to find the best model: 1242.6435902118683[flaml.automl: 07-28 22:08:05] {2737} WARNING - Time taken to find the best model is 414% of the provided time budget and not all estimators' hyperparameter search converged. Consider increasing the ti
…
